Lenet-quantized-same.tflite (tflite, 51200 bytes, 5 tensors)

sequential/quant_conv2d/Conv2D;sequential/quant_conv2d/LastValueQuant/FakeQuantWithMinMaxVarsPerChannel i1 [6, 5, 5, 1]
0	0xfb	-5
1	0x47	71
2	0x59	89
3	0x52	82
4	0xe2	-30
5	0x2b	43
6	0x26	38
7	0x35	53
8	0xdc	-36
9	0x95	-107
10	0x4d	77
11	0x38	56
12	0x15	21
13	0xf0	-16
14	0x81	-127
15	0xfd	-3
16	0xf6	-10
17	0xe3	-29
18	0x86	-122
19	0x84	-124
20	0x06	6
21	0xde	-34
22	0x93	-109
23	0x9d	-99
24	0x02	2
25	0x01	1
26	0x18	24
27	0x26	38
28	0xca	-54
29	0xdf	-33
30	0x5a	90
31	0x41	65
32	0xde	-34
33	0xa8	-88
34	0x89	-119
35	0x4e	78
36	0x1f	31
37	0x0b	11
38	0xf3	-13
39	0x95	-107
40	0x18	24
41	0x1a	26
42	0x30	48
43	0xe7	-25
44	0x81	-127
45	0x52	82
46	0x4b	75
47	0xf1	-15
48	0x32	50
49	0xe4	-28
50	0x0c	12
51	0x4d	77
52	0xdd	-35
53	0xe6	-26
54	0xe5	-27
55	0x4e	78
56	0xf7	-9
57	0x46	70
58	0x68	104
59	0x31	49
60	0x58	88
61	0xd8	-40
62	0xe7	-25
63	0x39	57
64	0x7f	127
65	0x0e	14
66	0x72	114
67	0x66	102
68	0xe3	-29
69	0x50	80
70	0x18	24
71	0x36	54
72	0xef	-17
73	0xc4	-60
74	0x9c	-100
75	0x1f	31
76	0xdf	-33
77	0xbb	-69
78	0xb4	-76
79	0xb5	-75
80	0xc6	-58
81	0x81	-127
82	0xad	-83
83	0xb9	-71
84	0x33	51
85	0xd7	-41
86	0xe2	-30
87	0x04	4
88	0x1d	29
89	0x51	81
90	0xf6	-10
91	0x48	72
92	0x41	65
93	0x16	22
94	0x2e	46
95	0x26	38
96	0x54	84
97	0x5c	92
98	0x32	50
99	0x20	32
100	0xd4	-44
101	0x1f	31
102	0xe7	-25
103	0x1e	30
104	0xa3	-93
105	0x13	19
106	0x03	3
107	0xe2	-30
108	0x4c	76
109	0xff	-1
110	0xe0	-32
111	0x10	16
112	0xe7	-25
113	0x46	70
114	0x2b	43
115	0x56	86
116	0x96	-106
117	0x81	-127
118	0x45	69
119	0x40	64
120	0x0c	12
121	0xac	-84
122	0xc3	-61
123	0x63	99
124	0x5d	93
125	0x2b	43
126	0x36	54
127	0x4e	78
128	0x47	71
129	0x40	64
130	0x08	8
131	0x28	40
132	0x5c	92
133	0x7e	126
134	0x70	112
135	0x13	19
136	0x19	25
137	0xf2	-14
138	0x01	1
139	0x0b	11
140	0x8c	-116
141	0x81	-127
142	0x8d	-115
143	0xb2	-78
144	0x0a	10
145	0x99	-103
146	0x8f	-113
147	0x97	-105
148	0x88	-120
149	0xe6	-26

sequential/quant_conv2d_1/Conv2D;sequential/quant_conv2d_1/LastValueQuant/FakeQuantWithMinMaxVarsPerChannel i1 [16, 5, 5, 6]
0	0xee	-18
1	0xce	-50
2	0x11	17
3	0x2f	47
4	0x15	21
5	0xe0	-32
6	0xdb	-37
7	0xc3	-61
8	0xf7	-9
9	0x51	81
10	0x1f	31
11	0xd6	-42
12	0xd1	-47
13	0xe1	-31
14	0x0f	15
15	0x50	80
16	0x09	9
17	0xf8	-8
18	0xd8	-40
19	0xd9	-39
20	0x04	4
21	0x43	67
22	0x03	3
23	0xd1	-47
24	0xd9	-39
25	0x14	20
26	0x1e	30
27	0x01	1
28	0x35	53
29	0x2b	43
30	0x6d	109
31	0xc6	-58
32	0x19	25
33	0x50	80
34	0x31	49
35	0xb5	-75
36	0x54	84
37	0xaf	-81
38	0x35	53
39	0x40	64
40	0x26	38
41	0xbd	-67
42	0xfc	-4
43	0xe9	-23
44	0x2a	42
45	0x1e	30
46	0xfa	-6
47	0xf0	-16
48	0xeb	-21
49	0xdb	-37
50	0x20	32
51	0x1b	27
52	0x2e	46
53	0xed	-19
54	0xd4	-44
55	0x3c	60
56	0x1e	30
57	0xeb	-21
58	0x2d	45
59	0xf3	-13
60	0x38	56
61	0xf0	-16
62	0x2c	44
63	0x0c	12
64	0x30	48
65	0x81	-127
66	0x30	48
67	0x0f	15
68	0x25	37
69	0x0d	13
70	0xfc	-4
71	0xd1	-47
72	0x29	41
73	0x12	18
74	0xf7	-9
75	0xf5	-11
76	0x3f	63
77	0xe0	-32
78	0xf3	-13
79	0xea	-22
80	0x21	33
81	0xf6	-10
82	0x21	33
83	0xc9	-55
84	0xa8	-88
85	0x12	18
86	0x17	23
87	0x12	18
88	0x19	25
89	0xf1	-15
90	0x1b	27
91	0x3f	63
92	0xf0	-16
93	0xde	-34
94	0x0e	14
95	0xb3	-77
96	0x04	4
97	0x37	55
98	0x2d	45
99	0xf3	-13
100	0xf1	-15
101	0xd4	-44
102	0xf1	-15
103	0xf4	-12
104	0x19	25
105	0xed	-19
106	0x10	16
107	0xf8	-8
108	0x09	9
109	0x02	2
110	0xf1	-15
111	0xe2	-30
112	0xeb	-21
113	0xeb	-21
114	0xfd	-3
115	0xed	-19
116	0x1b	27
117	0x1d	29
118	0x11	17
119	0xf7	-9
120	0xbf	-65
121	0x08	8
122	0x00	0
123	0xb7	-73
124	0x2a	42
125	0x22	34
126	0xbc	-68
127	0x0a	10
128	0x15	21
129	0x04	4
130	0x1a	26
131	0x1e	30
132	0x0b	11
133	0x14	20
134	0x0b	11
135	0x18	24
136	0xf6	-10
137	0x00	0
138	0x0c	12
139	0x0e	14
140	0xf3	-13
141	0xfe	-2
142	0x01	1
143	0x12	18
144	0x02	2
145	0xd2	-46
146	0x10	16
147	0x40	64
148	0xe2	-30
149	0x08	8
150	0xd2	-46
151	0x0b	11
152	0xe3	-29
153	0xd3	-45
154	0xe5	-27
155	0xe5	-27
156	0x08	8
157	0xed	-19
158	0xdb	-37
159	0xcb	-53
160	0xf6	-10
161	0xdf	-33
162	0x2b	43
163	0x01	1
164	0xd7	-41
165	0x14	20
166	0xe9	-23
167	0xd4	-44
168	0x29	41
169	0x07	7
170	0xdf	-33
171	0x0e	14
172	0x19	25
173	0xaa	-86
174	0x21	33
175	0xe4	-28
176	0xe3	-29
177	0x16	22
178	0x1b	27
179	0xcf	-49
180	0xda	-38
181	0x2e	46
182	0x00	0
183	0xf5	-11
184	0xe2	-30
185	0xc5	-59
186	0x24	36
187	0xea	-22
188	0xe1	-31
189	0x02	2
190	0x0f	15
191	0xc4	-60
192	0x2a	42
193	0xf5	-11
194	0xf5	-11
195	0x03	3
196	0x23	35
197	0x9d	-99
198	0x22	34
199	0xf3	-13
200	0xef	-17
201	0x31	49
202	0x08	8
203	0x8f	-113
204	0x2d	45
205	0x15	21
206	0x12	18
207	0x0f	15
208	0x24	36
209	0x81	-127
210	0x11	17
211	0x24	36
212	0xf2	-14
213	0xe7	-25
214	0xed	-19
215	0xc0	-64
216	0x12	18
217	0xf2	-14
218	0xec	-20
219	0xe3	-29
220	0xf6	-10
221	0xb7	-73
222	0x27	39
223	0x0a	10
224	0xfe	-2
225	0xfd	-3
226	0x03	3
227	0x95	-107
228	0x32	50
229	0x04	4
230	0x0b	11
231	0x0f	15
232	0xfb	-5
233	0x9a	-102
234	0x1d	29
235	0x0c	12
236	0x11	17
237	0x29	41
238	0x13	19
239	0xa7	-89
240	0xf9	-7
241	0x26	38
242	0xf0	-16
243	0xfe	-2
244	0xfc	-4
245	0xe1	-31
246	0xfa	-6
247	0x13	19
248	0x06	6
249	0x0f	15
250	0x09	9
251	0xc5	-59
252	0x41	65
253	0x06	6
254	0x05	5
255	0x08	8

sequential/quant_dense/MatMul;sequential/quant_dense/LastValueQuant/FakeQuantWithMinMaxVars i1 [120, 256] scale=0.0064163986 zero_point=0
0	0x00	0.0
1	0xfd	-0.019249195
2	0xfa	-0.03849839
3	0x01	0.0064163986
4	0xf6	-0.06416398
5	0x05	0.03208199
6	0xec	-0.12832797
7	0xf4	-0.07699678
8	0xff	-0.0064163986
9	0xeb	-0.13474438
10	0xfc	-0.025665594
11	0xf0	-0.10266238
12	0xf6	-0.06416398
13	0xef	-0.10907877
14	0xec	-0.12832797
15	0xfa	-0.03849839
16	0xf6	-0.06416398
17	0x09	0.057747588
18	0xf3	-0.08341318
19	0x02	0.012832797
20	0xed	-0.12191157
21	0x01	0.0064163986
22	0xf1	-0.09624598
23	0x00	0.0
24	0xea	-0.14116077
25	0x03	0.019249195
26	0xf4	-0.07699678
27	0xf5	-0.070580386
28	0xf7	-0.057747588
29	0xff	-0.0064163986
30	0xf7	-0.057747588
31	0xf7	-0.057747588
32	0xf5	-0.070580386
33	0xec	-0.12832797
34	0xfd	-0.019249195
35	0xf3	-0.08341318
36	0xec	-0.12832797
37	0xf3	-0.08341318
38	0xe7	-0.16040996
39	0xee	-0.115495175
40	0x08	0.05133119
41	0xe7	-0.16040996
42	0x14	0.12832797
43	0xfa	-0.03849839
44	0xff	-0.0064163986
45	0xfd	-0.019249195
46	0xfd	-0.019249195
47	0xfd	-0.019249195
48	0x05	0.03208199
49	0x04	0.025665594
50	0xf7	-0.057747588
51	0xf9	-0.04491479
52	0xee	-0.115495175
53	0x07	0.04491479
54	0x0b	0.070580386
55	0xf8	-0.05133119
56	0x0c	0.07699678
57	0xff	-0.0064163986
58	0xf0	-0.10266238
59	0xf6	-0.06416398
60	0x0c	0.07699678
61	0x0c	0.07699678
62	0x0a	0.06416398
63	0x01	0.0064163986
64	0xf4	-0.07699678
65	0x06	0.03849839
66	0xf1	-0.09624598
67	0xee	-0.115495175
68	0xfa	-0.03849839
69	0xff	-0.0064163986
70	0xf0	-0.10266238
71	0xf2	-0.08982958
72	0xfc	-0.025665594
73	0x07	0.04491479
74	0x0a	0.06416398
75	0x01	0.0064163986
76	0xf7	-0.057747588
77	0xee	-0.115495175
78	0xf8	-0.05133119
79	0x0c	0.07699678
80	0xf5	-0.070580386
81	0x05	0.03208199
82	0x0d	0.08341318
83	0x04	0.025665594
84	0xfb	-0.03208199
85	0x02	0.012832797
86	0xf3	-0.08341318
87	0x09	0.057747588
88	0x0d	0.08341318
89	0xf4	-0.07699678
90	0xee	-0.115495175
91	0xe9	-0.14757717
92	0xf0	-0.10266238
93	0xf2	-0.08982958
94	0xeb	-0.13474438
95	0xfc	-0.025665594
96	0x07	0.04491479
97	0x09	0.057747588
98	0x0c	0.07699678
99	0xff	-0.0064163986
100	0xf6	-0.06416398
101	0x0b	0.070580386
102	0xf7	-0.057747588
103	0x0a	0.06416398
104	0x0e	0.08982958
105	0xfe	-0.012832797
106	0x09	0.057747588
107	0x09	0.057747588
108	0xf4	-0.07699678
109	0x0d	0.08341318
110	0xf9	-0.04491479
111	0xfb	-0.03208199
112	0x06	0.03849839
113	0x03	0.019249195
114	0x07	0.04491479
115	0x02	0.012832797
116	0xf1	-0.09624598
117	0x0c	0.07699678
118	0xf7	-0.057747588
119	0xee	-0.115495175
120	0x0a	0.06416398
121	0xeb	-0.13474438
122	0xe8	-0.15399356
123	0x05	0.03208199
124	0xeb	-0.13474438
125	0xea	-0.14116077
126	0x08	0.05133119
127	0xf7	-0.057747588
128	0xfd	-0.019249195
129	0xf6	-0.06416398
130	0xf7	-0.057747588
131	0xfc	-0.025665594
132	0xfe	-0.012832797
133	0xf7	-0.057747588
134	0x0b	0.070580386
135	0x0a	0.06416398
136	0x0a	0.06416398
137	0x00	0.0
138	0xfa	-0.03849839
139	0x0a	0.06416398
140	0xfc	-0.025665594
141	0xf7	-0.057747588
142	0xeb	-0.13474438
143	0xec	-0.12832797
144	0xe7	-0.16040996
145	0x0c	0.07699678
146	0xf1	-0.09624598
147	0x0b	0.070580386
148	0xea	-0.14116077
149	0x10	0.10266238
150	0x06	0.03849839
151	0xee	-0.115495175
152	0x0d	0.08341318
153	0xf5	-0.070580386
154	0x12	0.115495175
155	0xf5	-0.070580386
156	0xe8	-0.15399356
157	0xfe	-0.012832797
158	0x0e	0.08982958
159	0x01	0.0064163986
160	0xe7	-0.16040996
161	0x02	0.012832797
162	0xf8	-0.05133119
163	0xf4	-0.07699678
164	0xfa	-0.03849839
165	0xf3	-0.08341318
166	0xec	-0.12832797
167	0x05	0.03208199
168	0x01	0.0064163986
169	0x04	0.025665594
170	0xfe	-0.012832797
171	0xfa	-0.03849839
172	0xf1	-0.09624598
173	0xff	-0.0064163986
174	0x11	0.10907877
175	0xf4	-0.07699678
176	0x00	0.0
177	0x0c	0.07699678
178	0x04	0.025665594
179	0x03	0.019249195
180	0xf0	-0.10266238
181	0x0e	0.08982958
182	0xf9	-0.04491479
183	0xfe	-0.012832797
184	0x10	0.10266238
185	0xed	-0.12191157
186	0xfc	-0.025665594
187	0x03	0.019249195
188	0xed	-0.12191157
189	0xef	-0.10907877
190	0xf7	-0.057747588
191	0xec	-0.12832797
192	0xf2	-0.08982958
193	0xfe	-0.012832797
194	0xec	-0.12832797
195	0xed	-0.12191157
196	0xf6	-0.06416398
197	0x03	0.019249195
198	0xea	-0.14116077
199	0xe8	-0.15399356
200	0xfe	-0.012832797
201	0xec	-0.12832797
202	0x0a	0.06416398
203	0xef	-0.10907877
204	0xf1	-0.09624598
205	0xf6	-0.06416398
206	0x0e	0.08982958
207	0xff	-0.0064163986
208	0xe6	-0.16682637
209	0xf7	-0.057747588
210	0x03	0.019249195
211	0x04	0.025665594
212	0x00	0.0
213	0x04	0.025665594
214	0xec	-0.12832797
215	0xf9	-0.04491479
216	0xf0	-0.10266238
217	0xfd	-0.019249195
218	0xf9	-0.04491479
219	0xf8	-0.05133119
220	0xfc	-0.025665594
221	0x02	0.012832797
222	0x0c	0.07699678
223	0xfd	-0.019249195
224	0x04	0.025665594
225	0x04	0.025665594
226	0xfe	-0.012832797
227	0x0e	0.08982958
228	0x03	0.019249195
229	0xf4	-0.07699678
230	0x0e	0.08982958
231	0xed	-0.12191157
232	0xfd	-0.019249195
233	0x0f	0.09624598
234	0xfb	-0.03208199
235	0xed	-0.12191157
236	0xfe	-0.012832797
237	0xfd	-0.019249195
238	0xf2	-0.08982958
239	0x0a	0.06416398
240	0x02	0.012832797
241	0xeb	-0.13474438
242	0xf5	-0.070580386
243	0xfc	-0.025665594
244	0xf3	-0.08341318
245	0xff	-0.0064163986
246	0xee	-0.115495175
247	0xf9	-0.04491479
248	0x00	0.0
249	0x09	0.057747588
250	0x08	0.05133119
251	0xf0	-0.10266238
252	0x00	0.0
253	0x01	0.0064163986
254	0xfa	-0.03849839
255	0xec	-0.12832797

sequential/quant_dense_1/MatMul;sequential/quant_dense_1/LastValueQuant/FakeQuantWithMinMaxVars i1 [84, 120] scale=0.004994844 zero_point=0
0	0xeb	-0.104891725
1	0xe8	-0.11987626
2	0xc8	-0.27971128
3	0xed	-0.09490204
4	0xd6	-0.20978345
5	0xd4	-0.21977314
6	0x08	0.039958753
7	0x27	0.19479892
8	0x12	0.08990719
9	0x1f	0.15484017
10	0x11	0.08491235
11	0xef	-0.08491235
12	0x18	0.11987626
13	0x0b	0.054943286
14	0xf2	-0.06992782
15	0x07	0.03496391
16	0x0c	0.05993813
17	0x19	0.124871105
18	0x05	0.02497422
19	0x10	0.079917505
20	0x0e	0.06992782
21	0xff	-0.004994844
22	0x02	0.009989688
23	0x03	0.014984532
24	0x20	0.15983501
25	0xef	-0.08491235
26	0x03	0.014984532
27	0x22	0.1698247
28	0xef	-0.08491235
29	0x07	0.03496391
30	0x22	0.1698247
31	0x12	0.08990719
32	0xef	-0.08491235
33	0x0c	0.05993813
34	0xee	-0.08990719
35	0xf9	-0.03496391
36	0xb5	-0.3746133
37	0xd2	-0.22976282
38	0xd0	-0.23975252
39	0x32	0.24974221
40	0xf8	-0.039958753
41	0x15	0.104891725
42	0x0b	0.054943286
43	0xe2	-0.14984532
44	0x11	0.08491235
45	0xe4	-0.13985564
46	0xf0	-0.079917505
47	0xea	-0.10988657
48	0x1d	0.14485048
49	0xf9	-0.03496391
50	0x06	0.029969065
51	0x10	0.079917505
52	0xec	-0.09989688
53	0xfa	-0.029969065
54	0xf9	-0.03496391
55	0x17	0.11488141
56	0x13	0.09490204
57	0x03	0.014984532
58	0xee	-0.08990719
59	0xff	-0.004994844
60	0xc7	-0.28470612
61	0x18	0.11987626
62	0x16	0.10988657
63	0x13	0.09490204
64	0xf7	-0.044953596
65	0xfd	-0.014984532
66	0x14	0.09989688
67	0x11	0.08491235
68	0xf0	-0.079917505
69	0xfd	-0.014984532
70	0x1d	0.14485048
71	0xdf	-0.16482985
72	0xe3	-0.14485048
73	0x06	0.029969065
74	0xd9	-0.19479892
75	0x12	0.08990719
76	0xe7	-0.124871105
77	0x0c	0.05993813
78	0x0f	0.07492266
79	0x0e	0.06992782
80	0xef	-0.08491235
81	0x15	0.104891725
82	0xfd	-0.014984532
83	0xf9	-0.03496391
84	0xf7	-0.044953596
85	0xe5	-0.13486078
86	0x10	0.079917505
87	0x08	0.039958753
88	0x1a	0.12986594
89	0x02	0.009989688
90	0x13	0.09490204
91	0x1d	0.14485048
92	0x3e	0.30968034
93	0xfd	-0.014984532
94	0x23	0.17481954
95	0xcc	-0.2597319
96	0x16	0.10988657
97	0xfc	-0.019979376
98	0xef	-0.08491235
99	0x06	0.029969065
100	0x02	0.009989688
101	0x07	0.03496391
102	0x2c	0.21977314
103	0x05	0.02497422
104	0x0c	0.05993813
105	0x02	0.009989688
106	0xfa	-0.029969065
107	0x1c	0.13985564
108	0x27	0.19479892
109	0x12	0.08990719
110	0xfa	-0.029969065
111	0xee	-0.08990719
112	0x06	0.029969065
113	0xfd	-0.014984532
114	0x12	0.08990719
115	0x1a	0.12986594
116	0x15	0.104891725
117	0x1e	0.14984532
118	0x0c	0.05993813
119	0x18	0.11987626
120	0x00	0.0
121	0xf9	-0.03496391
122	0x1d	0.14485048
123	0x13	0.09490204
124	0xf1	-0.07492266
125	0xf4	-0.05993813
126	0xfa	-0.029969065
127	0x1b	0.13486078
128	0x21	0.16482985
129	0x07	0.03496391
130	0x12	0.08990719
131	0x11	0.08491235
132	0xf2	-0.06992782
133	0xe6	-0.12986594
134	0x15	0.104891725
135	0x1f	0.15484017
136	0x1a	0.12986594
137	0xe2	-0.14984532
138	0x1c	0.13985564
139	0x22	0.1698247
140	0xfe	-0.009989688
141	0xc1	-0.31467518
142	0x0c	0.05993813
143	0x00	0.0
144	0x20	0.15983501
145	0xe9	-0.11488141
146	0xf7	-0.044953596
147	0x3c	0.29969063
148	0xd3	-0.22476798
149	0x0d	0.06493297
150	0x36	0.26972157
151	0xfb	-0.02497422
152	0xde	-0.1698247
153	0xe6	-0.12986594
154	0xf3	-0.06493297
155	0xeb	-0.104891725
156	0xe7	-0.124871105
157	0xf8	-0.039958753
158	0x9e	-0.4894947
159	0x24	0.17981438
160	0xfa	-0.029969065
161	0xe9	-0.11488141
162	0x1b	0.13486078
163	0x14	0.09989688
164	0xf1	-0.07492266
165	0xea	-0.10988657
166	0xe0	-0.15983501
167	0xf6	-0.04994844
168	0x19	0.124871105
169	0x20	0.15983501
170	0x09	0.044953596
171	0x09	0.044953596
172	0x15	0.104891725
173	0xe9	-0.11488141
174	0x19	0.124871105
175	0x02	0.009989688
176	0x15	0.104891725
177	0x1a	0.12986594
178	0x16	0.10988657
179	0x14	0.09989688
180	0x01	0.004994844
181	0x33	0.25473705
182	0x01	0.004994844
183	0x0e	0.06992782
184	0x03	0.014984532
185	0xe1	-0.15484017
186	0x1a	0.12986594
187	0x1b	0.13486078
188	0x1f	0.15484017
189	0x11	0.08491235
190	0xf6	-0.04994844
191	0xee	-0.08990719
192	0x0b	0.054943286
193	0xec	-0.09989688
194	0x14	0.09989688
195	0xd9	-0.19479892
196	0x22	0.1698247
197	0x09	0.044953596
198	0xe5	-0.13486078
199	0x11	0.08491235
200	0xed	-0.09490204
201	0x0b	0.054943286
202	0xf1	-0.07492266
203	0x17	0.11488141
204	0xfd	-0.014984532
205	0xfb	-0.02497422
206	0xed	-0.09490204
207	0x1d	0.14485048
208	0xdc	-0.17981438
209	0x11	0.08491235
210	0xe9	-0.11488141
211	0x23	0.17481954
212	0xf4	-0.05993813
213	0xf5	-0.054943286
214	0x2a	0.20978345
215	0x0b	0.054943286
216	0xed	-0.09490204
217	0x2f	0.23475768
218	0xea	-0.10988657
219	0xdc	-0.17981438
220	0x05	0.02497422
221	0xdb	-0.18480924
222	0x13	0.09490204
223	0x20	0.15983501
224	0x0c	0.05993813
225	0xfc	-0.019979376
226	0xf4	-0.05993813
227	0x34	0.2597319
228	0x0b	0.054943286
229	0x09	0.044953596
230	0x01	0.004994844
231	0xf3	-0.06493297
232	0x13	0.09490204
233	0x03	0.014984532
234	0x0c	0.05993813
235	0x04	0.019979376
236	0xfe	-0.009989688
237	0x0f	0.07492266
238	0x01	0.004994844
239	0x0f	0.07492266
240	0x03	0.014984532
241	0x20	0.15983501
242	0xdc	-0.17981438
243	0x27	0.19479892
244	0xf0	-0.079917505
245	0x08	0.039958753
246	0xe4	-0.13985564
247	0x10	0.079917505
248	0x02	0.009989688
249	0xeb	-0.104891725
250	0x14	0.09989688
251	0x08	0.039958753
252	0xdf	-0.16482985
253	0x0b	0.054943286
254	0xf2	-0.06992782
255	0xfd	-0.014984532

sequential/quant_dense_2/MatMul;sequential/quant_dense_2/LastValueQuant/FakeQuantWithMinMaxVars i1 [10, 84] scale=0.004801362 zero_point=0
0	0x05	0.02400681
1	0x10	0.07682179
2	0x11	0.08162315
3	0x36	0.25927353
4	0xfe	-0.009602724
5	0x07	0.03360953
6	0xcc	-0.24967082
7	0xee	-0.086424515
8	0xdc	-0.17284903
9	0xfc	-0.019205447
10	0xc2	-0.29768443
11	0xfc	-0.019205447
12	0xbb	-0.33129397
13	0x4a	0.35530078
14	0xf6	-0.04801362
15	0x00	0.0
16	0xbd	-0.32169124
17	0x0f	0.07202043
18	0x18	0.11523268
19	0xd8	-0.19205448
20	0x18	0.11523268
21	0x06	0.02880817
22	0x28	0.19205448
23	0xf8	-0.038410895
24	0xb3	-0.36970487
25	0x40	0.30728716
26	0xf1	-0.07202043
27	0xd7	-0.19685583
28	0xcb	-0.25447217
29	0xf0	-0.07682179
30	0xfd	-0.014404085
31	0xd9	-0.18725312
32	0xa6	-0.43212256
33	0x29	0.19685583
34	0xac	-0.40331438
35	0xb1	-0.3793076
36	0xd1	-0.225664
37	0xc4	-0.2880817
38	0x1c	0.13443813
39	0x1c	0.13443813
40	0x0b	0.05281498
41	0x44	0.3264926
42	0xcf	-0.23526673
43	0xe5	-0.12963676
44	0x06	0.02880817
45	0xb7	-0.35049942
46	0x15	0.100828595
47	0xfa	-0.02880817
48	0x22	0.1632463
49	0x42	0.31688988
50	0x21	0.15844494
51	0xaf	-0.3889103
52	0xb5	-0.36010215
53	0x24	0.17284903
54	0xc6	-0.27847898
55	0xe3	-0.13923949
56	0xb5	-0.36010215
57	0xfe	-0.009602724
58	0x98	-0.49934164
59	0xa7	-0.4273212
60	0xbf	-0.31208852
61	0x1f	0.14884222
62	0xe5	-0.12963676
63	0xf4	-0.05761634
64	0x34	0.24967082
65	0x2c	0.21125992
66	0x0f	0.07202043
67	0x16	0.10562996
68	0xd6	-0.20165719
69	0x2a	0.20165719
70	0x26	0.18245175
71	0xec	-0.09602724
72	0xe1	-0.14884222
73	0xe3	-0.13923949
74	0xdc	-0.17284903
75	0xfb	-0.02400681
76	0x12	0.086424515
77	0xf7	-0.043212257
78	0x15	0.100828595
79	0x25	0.17765039
80	0x16	0.10562996
81	0xac	-0.40331438
82	0xfa	-0.02880817
83	0xc5	-0.28328034
84	0xeb	-0.100828595
85	0xdf	-0.15844494
86	0xc9	-0.2640749
87	0x1a	0.12483541
88	0x9a	-0.4897389
89	0x97	-0.504143
90	0x04	0.019205447
91	0xe4	-0.13443813
92	0xe0	-0.15364358
93	0x38	0.26887625
94	0xca	-0.25927353
95	0xd4	-0.21125992
96	0x18	0.11523268
97	0x1a	0.12483541
98	0x46	0.33609533
99	0xf2	-0.06721906
100	0xd9	-0.18725312
101	0x08	0.038410895
102	0x0c	0.05761634
103	0x0e	0.06721906
104	0x4b	0.36010215
105	0x11	0.08162315
106	0x25	0.17765039
107	0xaa	-0.4129171
108	0x31	0.23526673
109	0xe2	-0.14404085
110	0xba	-0.33609533
111	0xaf	-0.3889103
112	0xcc	-0.24967082
113	0xf4	-0.05761634
114	0xbb	-0.33129397
115	0xb0	-0.38410896
116	0xef	-0.08162315
117	0x4a	0.35530078
118	0x14	0.09602724
119	0x41	0.31208852
120	0x2c	0.21125992
121	0x2c	0.21125992
122	0xbc	-0.3264926
123	0x26	0.18245175
124	0xfc	-0.019205447
125	0xce	-0.2400681
126	0x3f	0.3024858
127	0xc9	-0.2640749
128	0xf9	-0.03360953
129	0x14	0.09602724
130	0x43	0.32169124
131	0x05	0.02400681
132	0x34	0.24967082
133	0x36	0.25927353
134	0xed	-0.09122588
135	0xec	-0.09602724
136	0x29	0.19685583
137	0xc3	-0.29288307
138	0x1f	0.14884222
139	0x73	0.5521566
140	0xed	-0.09122588
141	0x0a	0.04801362
142	0xf6	-0.04801362
143	0xfb	-0.02400681
144	0x1e	0.14404085
145	0x04	0.019205447
146	0xe9	-0.11043132
147	0xd1	-0.225664
148	0xf4	-0.05761634
149	0xfa	-0.02880817
150	0xe8	-0.11523268
151	0x06	0.02880817
152	0x1e	0.14404085
153	0xeb	-0.100828595
154	0xc8	-0.26887625
155	0x08	0.038410895
156	0x0f	0.07202043
157	0xf1	-0.07202043
158	0xb5	-0.36010215
159	0xb5	-0.36010215
160	0xe7	-0.12003405
161	0x38	0.26887625
162	0xbc	-0.3264926
163	0xab	-0.40811574
164	0xd2	-0.22086264
165	0x04	0.019205447
166	0xff	-0.004801362
167	0xeb	-0.100828595
168	0x09	0.043212257
169	0xed	-0.09122588
170	0x26	0.18245175
171	0x00	0.0
172	0x13	0.09122588
173	0x13	0.09122588
174	0x20	0.15364358
175	0xeb	-0.100828595
176	0xc8	-0.26887625
177	0xf0	-0.07682179
178	0xf3	-0.062417705
179	0x09	0.043212257
180	0xb1	-0.3793076
181	0xe8	-0.11523268
182	0xc5	-0.28328034
183	0xde	-0.1632463
184	0xc8	-0.26887625
185	0x39	0.27367762
186	0x33	0.24486946
187	0xf3	-0.062417705
188	0xb8	-0.34569806
189	0x1e	0.14404085
190	0x2b	0.20645855
191	0xd6	-0.20165719
192	0xd4	-0.21125992
193	0xe1	-0.14884222
194	0x0a	0.04801362
195	0x09	0.043212257
196	0x30	0.23046537
197	0x05	0.02400681
198	0xfc	-0.019205447
199	0xdf	-0.15844494
200	0x35	0.25447217
201	0x2c	0.21125992
202	0x1a	0.12483541
203	0x13	0.09122588
204	0xd7	-0.19685583
205	0x2b	0.20645855
206	0xe8	-0.11523268
207	0xda	-0.18245175
208	0x0e	0.06721906
209	0xb7	-0.35049942
210	0xc1	-0.3024858
211	0x2f	0.225664
212	0xed	-0.09122588
213	0x0a	0.04801362
214	0x0c	0.05761634
215	0xbd	-0.32169124
216	0xee	-0.086424515
217	0xc8	-0.26887625
218	0xd5	-0.20645855
219	0x0b	0.05281498
220	0x1c	0.13443813
221	0x29	0.19685583
222	0xf8	-0.038410895
223	0xd4	-0.21125992
224	0xde	-0.1632463
225	0x39	0.27367762
226	0xf3	-0.062417705
227	0xea	-0.10562996
228	0x22	0.1632463
229	0xcb	-0.25447217
230	0xf3	-0.062417705
231	0x0c	0.05761634
232	0x24	0.17284903
233	0x1e	0.14404085
234	0x23	0.16804767
235	0xe9	-0.11043132
236	0x27	0.18725312
237	0xde	-0.1632463
238	0x12	0.086424515
239	0xd0	-0.23046537
240	0x0c	0.05761634
241	0xe9	-0.11043132
242	0x0f	0.07202043
243	0xf0	-0.07682179
244	0xcb	-0.25447217
245	0x34	0.24967082
246	0x30	0.23046537
247	0xd0	-0.23046537
248	0x26	0.18245175
249	0xe9	-0.11043132
250	0xc3	-0.29288307
251	0x1d	0.13923949
252	0x06	0.02880817
253	0x2b	0.20645855
254	0xf2	-0.06721906
255	0x2b	0.20645855
