mnist.tflite (tflite, 903148 bytes, 8 tensors)

dense_1/bias f4 [10]
000000 81 9a bf 3c 39 e2 79 3d d9 cf 04 bc 47 09 3b bd
       0.023389103 0.06100676 -0.008106195 -0.045663144
000010 14 a3 81 3d c9 80 3b bd 4c 2b 7c bd e4 ff 33 bc
       0.06329933 -0.045777116 -0.06156473 -0.010986302
000020 bd 32 c4 3d 24 a1 8a bd
       0.0957999 -0.067690164

dense/bias f4 [128]
000000 fe 17 a0 bc e2 c1 ab bc af b2 0c bd 8d 8e b5 bd
       -0.01954269 -0.020966474 -0.034350093 -0.0886508
000010 38 2c e2 bc d2 52 47 bd c3 f7 f1 3b b5 79 45 bc
       -0.027608976 -0.048662968 0.007384272 -0.012052943
000020 1c a8 b0 3d c4 09 87 bc 06 af fa bc 16 83 3c bd
       0.08625814 -0.016484149 -0.030601036 -0.04602345
000030 3c 3c 22 bc d3 b4 d1 3c c2 81 27 bd 49 67 83 3d
       -0.009902056 0.025598919 -0.04089523 0.064161845
000040 b3 e6 ae bd 89 3f 9a bd ac e6 a0 3c 85 8b 5b bd
       -0.08540096 -0.075316496 0.019641243 -0.053599853
000050 7a 9f 39 bd 8a fd 0b be fd 38 c9 bc 1b 39 3f 3c
       -0.045318104 -0.13670936 -0.024563307 0.01167133
000060 6e e3 da ba cb 57 aa 3d fe a9 d4 bd e4 f6 54 bc
       -0.0016699859 0.083175264 -0.10383986 -0.012998316
000070 84 23 5b 3d d0 55 72 ba 18 f8 b8 bd a6 37 eb 3c
       0.053500667 -0.00092443544 -0.09031695 0.028713059
000080 81 f0 57 bb 49 d4 bb bc be 78 85 3d 03 95 22 bc
       -0.0032949748 -0.022928374 0.0651717 -0.0099232225
000090 cb 68 5e 3c 51 33 4e bd cc d5 12 bd 29 d3 0b 3e
       0.013574789 -0.050341908 -0.035848424 0.1365477
0000a0 da 67 5c 3c 3b 15 e0 bb c1 1d b8 3c 75 ea a3 bb
       0.0134524945 -0.0068384684 0.022475125 -0.0050023147
0000b0 7e ca 18 3d 1d 40 14 bd 56 0e be bc f6 d5 26 3c
       0.037302487 -0.036193956 -0.023200195 0.010182848
0000c0 9b 6d 67 bd 49 6c 1f bd d4 48 ab 3c 2a ff 5f bd
       -0.056501012 -0.03892163 0.02090875 -0.054686703
0000d0 69 87 d5 b9 20 ad 8b 3d 2a 4c bf bd 4c 5e 51 bd
       -0.00040727414 0.0682013 -0.09340699 -0.05111532
0000e0 59 bb 15 bd 3a 11 b9 bc 26 ae 9c bd 23 74 a3 ba
       -0.03655562 -0.022591222 -0.07650404 -0.0012470525
0000f0 3c 6c 74 bd 21 c3 19 3c 9b f4 68 3d 61 14 e7 3b
       -0.059673533 0.009384901 0.0568739 0.00705199
000100 d7 02 f1 bc 13 a7 1f 3d ce e2 06 bd 06 87 d4 3c
       -0.0294203 0.038977694 -0.03293114 0.02594329
000110 c5 51 0a 3b 8a 92 ee bb 91 c5 99 bd 99 19 eb 3c
       0.0021105867 -0.0072806524 -0.07508386 0.02869873
000120 ec 9a a6 bc 51 5e 6f bb 82 59 2a bd e7 04 5c bc
       -0.020337544 -0.0036524723 -0.041589268 -0.013428903
000130 19 85 21 bd 6a 78 e3 bb 3f d7 46 bc e7 eb 9a bd
       -0.039433572 -0.0069418447 -0.01213628 -0.07564526
000140 4b 30 c5 bc 56 32 f2 bc 35 1d 87 3d 60 e8 db bb
       -0.02407088 -0.029565018 0.06597368 -0.006711051
000150 72 eb e3 bd b4 f5 2d bc ad 0c d9 bb 83 a2 c0 39
       -0.11128892 -0.010617662 -0.0066238255 0.00036742174
000160 ed 04 18 bc 8b 5b a5 bd e9 5c 0d bc 56 c4 01 bd
       -0.009278518 -0.08074101 -0.008628109 -0.03168138
000170 58 67 7a 3d f4 08 93 3d 95 69 f3 bc 72 15 74 bc
       0.061133713 0.07179442 -0.029713431 -0.014897691
000180 3a a9 97 bd 7f 3b b1 bc 30 29 54 3d ac 07 0d bb
       -0.07405324 -0.021634815 0.051797092 -0.0021519465
000190 2d a5 73 bd d8 06 4c 3d 67 3e 8f 3d d4 eb 21 bd
       -0.059483696 0.049811214 0.06994324 -0.039531544
0001a0 3f d2 e9 bc e6 5d 76 3d 49 06 98 3d b2 99 af bc
       -0.028542636 0.060148142 0.07423074 -0.021435592
0001b0 95 7f e6 bc aa 0d ee bd 6e 5c e7 bc c1 69 92 bd
       -0.028137008 -0.116237 -0.028242316 -0.07149077
0001c0 22 72 c6 bd c3 b2 3e bc cd 3c 36 3d 8f 50 86 bd
       -0.09689738 -0.0116393 0.044491578 -0.06558334
0001d0 6a 33 0a 3d be f2 64 3c f2 c9 23 bd e0 93 b5 3b
       0.03374044 0.01397389 -0.039987512 0.0055413097
0001e0 5d b4 89 bd 3f 80 6a 3b 39 3f 9f bd 37 53 34 bc
       -0.06723855 0.0035782007 -0.07775731 -0.011006168
0001f0 24 f5 4f 3c ca 0d 9f bd 86 c6 a1 bb 40 e4 67 3a
       0.012692723 -0.07766302 -0.004936996 0.00088459626

conv2d_1/bias f4 [64]
000000 1d ee ac bd a9 44 a2 3c 31 cf 23 be 6e f1 82 bd
       -0.08443854 0.01980813 -0.15997006 -0.06393705
000010 46 77 1f be 6a 64 28 be ec c6 24 bd d8 79 e3 bc
       -0.15572843 -0.16444555 -0.04022877 -0.02776806
000020 0f 9f 0d bd f2 bd 03 be 72 34 1b be 2c 8a 99 bc
       -0.03457552 -0.12865427 -0.15156725 -0.018742643
000030 af cd 19 bd ae d0 73 bd 9d b3 22 be 33 b0 e7 bc
       -0.03754967 -0.059525184 -0.1588883 -0.02828226
000040 31 fc d5 bd 16 c0 85 bd 8a 62 10 be b5 b0 f1 bc
       -0.10448492 -0.06530778 -0.1410009 -0.029503206
000050 bb d3 30 be 1a eb 98 3c 00 6f d5 bd 0f 5b cd bd
       -0.17268269 0.018666793 -0.10421562 -0.10027134
000060 2e be c8 bc fb 47 0e be 3b 40 08 be 1b 30 d1 3c
       -0.024504747 -0.13894646 -0.13305752 0.025535634
000070 13 f8 95 bd ae c0 86 bd c9 ee 9e bd 1c 7f 58 bd
       -0.07322707 -0.065797195 -0.077603884 -0.052855596
000080 6e 45 af bb 56 57 f7 bd b0 e4 96 bd ba 47 a2 bd
       -0.005348853 -0.12077205 -0.073678374 -0.07923837
000090 04 f1 20 bd c9 74 55 bd 14 7f 10 be f9 a5 4d bd
       -0.03929235 -0.052113328 -0.14110976 -0.050207112
0000a0 f0 f0 11 be f9 10 83 bd ba 72 a5 bd 1f ca 23 bd
       -0.14252067 -0.06399722 -0.08078523 -0.03998768
0000b0 89 60 c7 bd 1c 98 74 bd 11 2b 71 bd 57 5e 50 bd
       -0.097352095 -0.059715375 -0.058878962 -0.05087122
0000c0 94 33 5c bd 26 5f b5 bd 25 45 4b 3d 30 66 fe bc
       -0.053760126 -0.08856039 0.04962649 -0.031054586
0000d0 93 08 05 be 60 f2 e0 bd 56 b8 d2 bd ec e7 33 bd
       -0.12991552 -0.10983729 -0.102890655 -0.04392235
0000e0 3a 0d 34 be 0c f1 06 be 12 ea 0c bc c6 61 fa bd
       -0.1758317 -0.1317789 -0.008600729 -0.1222568
0000f0 ad f2 9d bd dd 5f 40 be 39 5e f8 bd f9 89 8c bd
       -0.07712302 -0.18786569 -0.121273465 -0.06862254

conv2d/bias f4 [32]
000000 f6 41 82 bd d4 58 1c bd 55 af ea bd 66 84 ea 3b
       -0.06360237 -0.03817065 -0.11459223 0.0071568964
000010 d2 01 fa bd 99 cf f0 bb e5 4f 50 bd f9 d0 4c bc
       -0.122073784 -0.0073489663 -0.050857443 -0.012500995
000020 32 04 eb bc 5e c3 54 bd 3a 30 47 bd 76 ab 19 be
       -0.028688524 -0.05194413 -0.048629977 -0.15006813
000030 44 0e 3c be 34 4f 38 3e 08 69 d1 bd 6d d2 b5 bd
       -0.18364817 0.17998964 -0.10225111 -0.08878026
000040 cb 80 2d bd c8 7f cf 3d db f6 dc 3c 42 e5 dc bc
       -0.042359155 0.10131794 0.026973179 -0.026964787
000050 38 bc 05 bd 2d 12 2b 3d f3 15 0f be d2 55 ea bc
       -0.032650203 0.04176538 -0.13973217 -0.028605375
000060 15 ae f8 bc 4e ad 7d bc 5f a5 4d bc 2a 8a 01 be
       -0.030356446 -0.015483214 -0.012551635 -0.12650362
000070 d6 50 ca bd 1f 79 2e bd f1 b5 a5 bd b8 c3 a1 bd
       -0.098786995 -0.04259598 -0.08091343 -0.078986585

sequential/dense/MatMul f4 [128, 1600]
000000 a3 0d 55 bd cc 9d 25 bd b0 77 62 bc 2c 1d 21 3c
       -0.052014958 -0.04043369 -0.013822481 0.009833615
000010 ec ed 09 3c cb f1 36 3d 71 1b f2 bc d7 45 3b bd
       0.008418541 0.044664185 -0.0295541 -0.0457209
000020 0c 84 04 bd a7 e4 5b 3d 0a fd c7 3c af e9 5e 3d
       -0.032352492 0.053684857 0.02441265 0.054422077
000030 23 dc 2b 3d 60 ff f5 3c 48 21 44 bd 21 20 36 3d
       0.041957986 0.030028999 -0.047883302 0.044464234
000040 fc 84 33 3d 54 e0 10 3c 0e 58 30 bd 95 26 84 bd
       0.043827996 0.0088425465 -0.043052725 -0.064526714
000050 31 84 0d 3d 16 63 b5 3c 91 de 5f bd a9 24 6b 3d
       0.034549896 0.022141974 -0.054655615 0.05740801
000060 00 ad 32 b9 08 a6 e0 3b 7a 2a b1 3c 29 79 63 bd
       -0.0001703985 0.00685573 0.0216267 -0.05553547
000070 f7 23 37 3d 8c 87 f5 bc 99 84 17 bd 4c 20 a1 bc
       0.044712033 -0.02997186 -0.03699169 -0.01966872
000080 38 ba dc 3b 0d 1b 19 bd b9 cc e2 3a 60 20 e5 ba
       0.006736066 -0.037379313 0.0017303444 -0.0017480962
000090 13 2a 0c bd 43 9b 24 3d f7 6d 39 bd e0 01 0b bb
       -0.034219813 0.04018713 -0.045270886 -0.0021210834
0000a0 ac cb b1 bc 90 87 59 bd c2 26 66 bd 3c 30 b6 3c
       -0.021703564 -0.053107798 -0.056189306 0.022239797
0000b0 11 41 a0 3c aa 78 a2 3c 0d 0f a9 3c c6 b3 08 bc
       0.019562276 0.019832928 0.02063706 -0.008343643
0000c0 96 02 cb 3c 8f 2b 4f bd 04 5e 6c bd c3 b8 d8 bc
       0.024781507 -0.05057865 -0.057706848 -0.026455289
0000d0 14 67 37 bd 13 6c 4b 3d e4 45 7e 3c 04 3b ed bc
       -0.044776037 0.049663614 0.015519593 -0.028958805
0000e0 2d 94 0f bd a9 f9 6f 3d c1 9d e4 bc 88 38 25 3d
       -0.03505342 0.058587704 -0.027907254 0.040337116
0000f0 d7 b2 d8 bc 78 01 cc bc f7 75 85 bd f5 e8 5b bd
       -0.026452465 -0.024903044 -0.06516641 -0.053688962
000100 79 f9 14 3d a0 4b ea 3a db ae 38 3d 65 db 5d 3d
       0.03637073 0.0017875321 0.04508863 0.05416431
000110 fa 95 a9 3c 94 16 48 bd d5 76 5c 3d e1 4c a4 bc
       0.020701397 -0.048849657 0.053824265 -0.02005619
000120 f1 89 50 3d 4e 79 15 bd db 28 d9 bc 66 14 d9 3c
       0.0509128 -0.03649264 -0.02650874 0.026498985
000130 95 d4 3e 3d 96 9c 0f 3d e3 f3 b2 bc 12 8e 49 bd
       0.046589453 0.03506144 -0.02184481 -0.049207754
000140 50 d7 10 bd 59 c8 31 bc 0a ab 9f bc 27 e8 0c 3d
       -0.035361588 -0.010850989 -0.019490737 0.034401085
000150 d5 ae 7f bd ef ce bf bc 02 ea 70 bd 3a 18 f0 3c
       -0.062422592 -0.023414103 -0.058816917 0.029308427
000160 1d 2d 1e bd 61 dd 30 bd c4 84 08 bc 88 2b 65 3d
       -0.038617242 -0.043179873 -0.008332435 0.055949718
000170 5b 92 9e bc bb f0 37 3d c5 ca 70 bc 45 a1 3c bc
       -0.019356897 0.044907313 -0.0146967815 -0.011513059
000180 3b c2 1a bd c6 09 fe 3b c0 69 e8 3c 52 8f 33 bd
       -0.03778289 0.00775263 0.028370738 -0.043837853
000190 9e eb 84 bd 8a ba 88 bd 40 c4 35 bd b9 1b 04 bd
       -0.06490253 -0.066762045 -0.04437661 -0.032253
0001a0 d9 c3 8b 3c eb 72 62 bd 85 0b 2e bd a6 64 31 bd
       0.01706116 -0.055285376 -0.042491455 -0.043308876
0001b0 6f 73 ef 3c d3 64 4c 3d f8 cc 7e bd d2 b2 f7 bc
       0.029229848 0.04990084 -0.062207192 -0.030236635
0001c0 8d 0c 21 3d 23 63 3d bd b0 ad df bc ac b1 f1 3c
       0.03931861 -0.046237122 -0.0273045 0.029503666
0001d0 e7 1e d8 bb d7 61 70 bd 2c 51 7b bd c6 4d 1c bd
       -0.0065954807 -0.058687057 -0.06135671 -0.038160108
0001e0 96 84 53 3a c2 44 fa bb b0 dd 74 3b 4b 6e 09 bd
       0.0008068768 -0.007637591 0.0037363581 -0.03355245
0001f0 b8 3c 94 3c 54 c6 9f bd 85 dc b9 3a 8a 58 47 3d
       0.01809536 -0.078015 0.00141801 0.04866842
000200 0a 0f 02 3d 1f e5 2a 3d 13 f3 4e 3d ef 28 07 3d
       0.031752624 0.041722413 0.050524782 0.03299802
000210 5f d2 09 3d 41 54 16 bd 28 8e 9d bc 6e 2f 81 3d
       0.03364789 -0.036701445 -0.019232824 0.063078746
000220 86 51 b1 bc b0 74 18 bd 7b 1d 81 bd f7 cd a0 bc
       -0.021645319 -0.037220657 -0.06304451 -0.019629462
000230 2a 49 16 bd 53 b0 34 3d e0 3d e1 3c 79 bd 86 3c
       -0.03669087 0.04411347 0.027495325 0.01644777
000240 07 c3 e0 3c 2b cb 0d bd 2a b6 b3 3c eb a2 ef 3c
       0.027436746 -0.034617584 0.021937449 0.02925249
000250 03 d1 65 3b 20 ba 64 bd d7 51 a2 bd b4 ba 6e bd
       0.0035067208 -0.055841565 -0.07925766 -0.058283523
000260 21 2f a8 bc 8c 94 1b bd 10 fc 51 39 a5 d2 51 bd
       -0.020530285 -0.037983462 0.00020025694 -0.051226277
000270 d4 d8 51 bd 10 7b 4e 3b 48 67 af bb de b4 ea bc
       -0.051232174 0.0031506456 -0.0053528883 -0.028650697
000280 1b 6b b5 3c df 90 c8 3c 49 eb 48 3d 03 e0 06 bd
       0.022145798 0.024483142 0.04905251 -0.032928478
000290 51 c4 ae bd 59 62 5b bd ae 24 4d bd 1c 12 0b 3d
       -0.08533538 -0.05356059 -0.05008381 0.033952817
0002a0 4d ec 1d bd 8e 17 25 3a 23 b0 89 3d 25 dc 3f bc
       -0.038555432 0.00062977604 0.067230485 -0.011710201
0002b0 4b 5e d9 bb 92 f4 b8 3c a0 d1 b4 3c 8a 07 5a 3b
       -0.006633555 0.022577558 0.022072613 0.0033268654
0002c0 e6 3e c8 bc c8 27 d8 3c 52 fc 9a 3c eb 44 ed 3c
       -0.024444055 0.026386157 0.018919144 0.028963527
0002d0 22 0e 96 bc e6 56 91 3b 25 9d ba bc 26 8f 14 bd
       -0.018317286 0.004435408 -0.02278001 -0.03626933
0002e0 62 18 93 bd f9 35 42 3d f2 89 18 bd a0 c6 85 bc
       -0.07182385 0.047414754 -0.03724093 -0.016330063
0002f0 90 b3 c4 bb 7b a2 c6 bc 78 61 f0 3c ef 6b 12 3d
       -0.006002851 -0.024247399 0.029343352 0.035747465
000300 fa 9c 8f bb 16 46 39 bd 95 11 0d 3d 8f e1 a4 bc
       -0.0043827267 -0.045232855 0.034440596 -0.020127086
000310 73 df 36 3d b8 00 1e bc f3 5a 3b bd 6c 7f 41 3d
       0.04464669 -0.009643726 -0.045741033 0.04724066
000320 aa a4 49 bd 32 74 d6 3c b6 d0 ef bc 85 d2 bc 3c
       -0.0492293 0.026178453 -0.029274326 0.023049602
000330 88 1d 82 bc 5a 4d 80 3a ce d7 92 3c 2f 7a 86 3c
       -0.015883222 0.0009788678 0.01792517 0.016415684
000340 16 e9 9d bd 9f 64 19 3d 9f a4 87 bd f4 b4 94 bd
       -0.07710473 0.037449475 -0.06623196 -0.072610766
000350 6b 69 be bc 5a 8f 85 bc fb af 42 3d 43 f1 99 3c
       -0.023243627 -0.016303707 0.04753111 0.0187918
000360 63 a6 5a b9 50 45 af 3b 19 af 61 bc df 6e 01 3d
       -0.00020852084 0.005348839 -0.013774657 0.031599876
000370 59 65 92 bc 64 2a 66 3d b5 73 5a 3c a6 26 6b bd
       -0.017870592 0.05619277 0.013333251 -0.057409905
000380 21 a8 7c bd 34 f0 a5 bc 16 03 1a bd fe 94 1c 3d
       -0.061683778 -0.02025614 -0.0376006 0.038228028
000390 ec 87 75 bd 79 b4 d6 bc 22 f8 54 bd bf 97 8e 3c
       -0.05994408 -0.026209103 -0.05199445 0.017406343
0003a0 49 2a 8a 3c f6 b1 e6 3c 4b d0 89 3c d5 99 05 3d
       0.016865866 0.02816103 0.016822955 0.03261741
0003b0 51 8f 32 3d cf aa 1b 3d 91 c9 76 3c b4 7b 78 bd
       0.04359371 0.038004693 0.015062706 -0.060664847
0003c0 3e ab 06 3d 93 8b a5 bd bf 3a 89 bc 8e 8a e5 3c
       0.032878153 -0.08083262 -0.016751645 0.02802017
0003d0 ae 5e 19 3d c5 3d ef bc a5 d2 b2 bc 90 b1 2a bc
       0.03744381 -0.029204259 -0.021828959 -0.010418311
0003e0 30 2c b5 bc af 17 52 3c 56 55 20 bd 54 30 af bc
       -0.022115797 0.012823029 -0.039143883 -0.02138535
0003f0 50 b6 4b bb ce c7 e4 3c fc df 32 3c fb 80 e8 3c
       -0.0031084009 0.027927306 0.01091766 0.028381815

sequential/dense_1/MatMul f4 [10, 128]
000000 bf 33 aa 3c a1 4f 6e 3d 9c 05 c9 3e 2d b8 b9 be
       0.020776628 0.05818141 0.39262092 -0.36273327
000010 45 a0 21 3e e0 8b 06 be 22 7a 22 3e 3c f2 ca 3d
       0.15783794 -0.13139296 0.15866902 0.09909484
000020 e4 1e 62 3e 0a 54 43 be a7 26 13 bf 32 4c c8 3d
       0.22082096 -0.19075027 -0.57480854 0.09780158
000030 29 87 ea 3d 34 f4 46 3e d4 a6 7c be a0 da 29 3e
       0.11451561 0.19429094 -0.24673015 0.16587305
000040 6c 4c 9f 3e f4 03 a0 bd 4a e7 1d bf 4e f7 74 be
       0.31112993 -0.07813254 -0.61681044 -0.23922464
000050 94 6e 3c be d2 47 23 3e aa a6 bc bd f2 1b b1 3d
       -0.18401557 0.15945366 -0.09211476 0.08647908
000060 39 f9 11 be 04 4d 93 3e 89 f1 ea bd b8 4d 1e 3e
       -0.14255227 0.28769696 -0.114718504 0.15459335
000070 f7 f2 b2 3e 74 91 86 3d c9 6c 93 3d c5 af 14 3d
       0.34950992 0.06570712 0.071984835 0.03630044
000080 99 4b 97 3d 59 03 26 be b8 87 e6 be a2 ec d6 3d
       0.07387466 -0.16212215 -0.4502542 0.10494353
000090 57 bf 1b be 95 c1 2b be 2f df 4b be a3 5d 4b 3d
       -0.15209709 -0.16773064 -0.19909357 0.049649846
0000a0 e7 e8 a2 3e 57 8d 27 be 5c 7d 0d 3e 4c 82 f5 3d
       0.31818315 -0.1636251 0.13817352 0.11987743
0000b0 46 3f 0e 3e f4 2b 33 bd 97 c3 02 3e 54 0d 81 be
       0.13891324 -0.04374309 0.12769924 -0.2520548
0000c0 25 12 d3 3d 8c 17 07 3e ab 7e 1c be d5 62 93 be
       0.10306195 0.13192576 -0.15282695 -0.2878634
0000d0 f6 db 43 3e 7f 6e 6d be 67 34 0c 3e b6 59 95 be
       0.19126877 -0.23186682 0.13691865 -0.29170007
0000e0 6f f9 c9 be 55 c8 f1 bd 28 ca 81 bd fa 91 8d be
       -0.39448115 -0.118057884 -0.06337386 -0.27650434
0000f0 fa 64 b3 be bd 9c cf 3c 8b eb 3a be 2c 20 9e bb
       -0.35037977 0.025343293 -0.18253915 -0.0048256125
000100 38 b9 ad 3d 66 24 62 3e 37 0b 2a be 0f a0 93 be
       0.08482593 0.22084197 -0.1660584 -0.28833053
000110 8c f5 81 be 2c 38 e2 bd 7b 4a bc bd 48 ef 4a 3d
       -0.2538265 -0.1104587 -0.091938935 0.049544603
000120 93 2b a5 bd 29 fa 32 3e 8a ad 5f 3d 73 25 ad 3d
       -0.08064952 0.17478241 0.05460886 0.084544085
000130 b6 00 88 be 0c c7 d4 be 2f db ef 3d bc 16 48 be
       -0.26563042 -0.4155811 0.11711728 -0.19539922
000140 c7 99 8f be 6a 57 79 be cb 06 65 be 59 90 a2 bc
       -0.2804701 -0.24349752 -0.22365873 -0.019844221
000150 82 f5 b9 be 53 0d 5b 3d 34 7d 1c 3e 9e da 54 be
       -0.3632012 0.053479504 0.15282136 -0.20786521
000160 1f 09 86 bd 30 e3 57 be b0 23 10 bd 59 89 9c 3e
       -0.065447085 -0.21082759 -0.035190284 0.30573538
000170 2b 46 7d be fa 35 4d be 6d 6f be 3c 3f 00 2a be
       -0.24733798 -0.20040122 0.023246491 -0.16601656
000180 00 61 32 be 85 07 a8 be 79 c6 3a 3d 45 6e 4b 3e
       -0.17419815 -0.32818237 0.045599435 0.19866283
000190 79 07 ef bd f6 dc 3b bd e0 99 a1 bd 8d 95 fe 3c
       -0.11671347 -0.04586502 -0.078906775 0.03107717
0001a0 7a bf c9 3c f0 31 23 be 77 69 87 3e c1 33 44 3c
       0.024627436 -0.15937018 0.2644765 0.01197523
0001b0 e2 8e 25 be 23 61 bc be 85 c5 82 3d e6 16 01 3e
       -0.16167787 -0.3679286 0.0638533 0.12606391
0001c0 d4 3b 6d be 2f 3e 68 3c 2b c4 9b bd 81 a0 c3 3d
       -0.23167354 0.014174982 -0.076057754 0.09552098
0001d0 e5 84 c2 be 62 5c f9 bd 37 fe 68 bd a6 40 86 3e
       -0.37992015 -0.12175824 -0.056883063 0.26221198
0001e0 0d a0 9c be 2f 7a 31 3e b3 2b 19 be 0f 38 48 3d
       -0.3059086 0.17331766 -0.14958076 0.048881587
0001f0 ae f0 8e bd 1f 60 bc be 04 4f 77 3e 15 18 d9 3d
       -0.069795 -0.36792085 0.24151236 0.106002964
000200 0a d4 14 be f4 8f 87 be 47 74 92 3e bb 17 a7 3d
       -0.14534011 -0.26477015 0.28604338 0.08158823
000210 ab 52 e9 3d 5e 3b 14 3e 97 31 78 3c 59 03 e5 3d
       0.11392721 0.14475772 0.015148542 0.11182279
000220 dc ce 95 3e 76 f1 0b 3e 04 54 00 be 2f 4f 39 bd
       0.29259384 0.13666329 -0.1253205 -0.04524153
000230 12 56 43 3d c9 62 08 bd a2 1b 03 bf 33 ad c9 3d
       0.047689505 -0.033297334 -0.5121404 0.09847488
000240 70 16 11 3e 9c 62 a0 be 4d d8 32 3e 84 c2 d7 3c
       0.14168715 -0.31325233 0.17465325 0.02633787
000250 d2 05 f4 bd aa 17 3a bd 58 af 43 be 23 ba a9 3e
       -0.11915173 -0.045432724 -0.19109857 0.33149824
000260 98 53 4c bd 20 ac b1 3d 85 79 36 bc ad b5 ac be
       -0.04988441 0.08675408 -0.011137371 -0.33732358
000270 cf 72 3c bd c4 9d 63 bd bf 1c 90 be 9a 42 2a 3e
       -0.046007928 -0.05557038 -0.28146932 0.16626969
000280 00 75 1b be fa 76 79 3b 75 cb ba 3d b3 fa f4 3d
       -0.1518135 0.00380653 0.091208376 0.119618796
000290 2f c5 7c 3d 65 76 80 3e 56 75 9f be 39 a6 48 3e
       0.061711486 0.25090328 -0.31144208 0.19594659
0002a0 eb 41 0a 3e dc 01 ec 3d fa 7e 27 3e 7a 16 c7 3c
       0.13501708 0.11523792 0.16357031 0.02430271
0002b0 65 5d cb 3d c6 0c f8 bc 54 86 1a be 3b 29 04 3e
       0.09929923 -0.030279528 -0.15090305 0.12906353
0002c0 32 9f 26 be 6f c6 a0 be 61 69 34 3e 71 a9 2d bc
       -0.16271666 -0.31401393 0.17618324 -0.01059948
0002d0 4b a1 83 be 5e ac 3f 3e ad e5 b5 bd d4 f7 15 be
       -0.25708994 0.18718097 -0.08881698 -0.1464532
0002e0 6c e3 77 be 96 28 79 bd d5 f0 13 3c 7e e8 3c 3e
       -0.24207848 -0.06082972 0.009029587 0.18448064
0002f0 73 00 56 3d 65 5d 0f 3d f2 1a 0c 3e 00 0f 56 3e
       0.052246522 0.035001177 0.13682154 0.2090416
000300 a9 b5 89 be de ca d6 bc 4a cb 15 be 43 4f 24 3d
       -0.26896408 -0.026219781 -0.1462833 0.040114652
000310 10 59 8a 3d 25 dd 06 bc f4 25 61 be 14 67 81 bd
       0.067552686 -0.008231436 -0.21987134 -0.06318489
000320 5e 0f 40 be d4 5c 96 bd 6d 13 c7 be 81 95 2f 3e
       -0.18755862 -0.07341924 -0.38882008 0.17146875
000330 3b e6 0e 3e e6 87 fd 3d d3 e9 1b 3d bc 2f 2e be
       0.13955013 0.12379436 0.03806479 -0.17010397
000340 ff 81 a1 3d 45 4e c3 bd bb 0c 18 3e 74 44 75 3d
       0.07886123 -0.09536413 0.14848606 0.059879735
000350 65 69 84 bd 70 68 17 be 98 a5 5a bc 7f 19 5e 3e
       -0.06465415 -0.14785933 -0.013345145 0.21689413
000360 f3 bc 25 bd c2 f0 b7 3c be 2c 87 3c 83 71 20 be
       -0.0404634 0.02245367 0.016500827 -0.15668301
000370 c9 51 4b 3d d2 f1 c4 bc 73 cf ac be ef 17 93 3d
       0.049638543 -0.02404109 -0.3375202 0.07182299
000380 28 9b 6f 3d 2b 57 4a be 94 fe eb 3d 1f d8 a9 be
       0.058497578 -0.19759814 0.11523166 -0.331727
000390 76 e5 7a be 07 e4 f8 3d 1a 09 08 bc 3a 90 13 be
       -0.24501595 0.12152868 -0.008302951 -0.14410487
0003a0 1b 0c 90 3d b9 42 d8 3e 20 4b b2 3e e2 3d 36 3e
       0.07033559 0.42238405 0.3482294 0.17797044
0003b0 d3 43 cc bd 97 55 8c be bd 8a a7 3d eb e8 08 bf
       -0.09973874 -0.2740905 0.08180759 -0.53480405
0003c0 b0 7a 32 be 39 a7 05 be 0b 99 da 3d 72 4f 89 be
       -0.17429614 -0.13052072 0.10673722 -0.26818424
0003d0 40 85 cf 3d c8 2e d7 bd 5f 58 02 be 13 0b ba 3d
       0.10132837 -0.1050697 -0.12729023 0.090841435
0003e0 0b 78 b3 bc 85 2f 99 3e ca 3a 06 bd a5 05 3a bc
       -0.021907827 0.29919067 -0.03277091 -0.011353885
0003f0 b2 4f 59 3e c5 6b 07 bd 2a 49 8b be 08 8e dd 3d
       0.21221808 -0.03306176 -0.27204257 0.10818106

sequential/conv2d/Conv2D f4 [32, 3, 3, 1]
000000 f8 16 9c be 97 94 85 be 54 f2 21 3e de c7 15 3e
       -0.30486274 -0.26089928 0.15815097 0.14627025
000010 a8 d8 26 3d 90 1f 6c 3e b2 d7 d2 3d 78 06 25 be
       0.040733963 0.23058915 0.10295047 -0.16115749
000020 10 f0 a0 be 5f d9 dc be b6 2d 16 be d1 1b dd 3d
       -0.31433153 -0.4313459 -0.14665875 0.10796321
000030 e3 0a fc be e5 16 00 3d 48 43 87 3e 7f b3 5c be
       -0.49227056 0.031271834 0.2641852 -0.21552847
000040 46 7d 0f 3e 9f 51 95 3e 6c 9a 5f bd 50 5a 22 3d
       0.14012632 0.29163834 -0.054590628 0.03963691
000050 fc 96 b2 3c 50 33 0a bd 59 a6 1c 3d 68 e2 bf bc
       0.02180051 -0.03374034 0.03824458 -0.023423389
000060 5e 2d 5f bd 62 40 8f 3d af 8b 0e bd 98 d4 0e be
       -0.054486625 0.06994702 -0.03480118 -0.13948286
000070 fe 38 99 be af 70 8a be ca 28 29 3c b3 b5 99 bd
       -0.29926294 -0.27039096 0.010324666 -0.075053595
000080 5d 23 73 3d 76 1e 8c 3e 1a b3 0d 3e 5e 12 ee 3d
       0.059359897 0.2736699 0.13837853 0.11624597
000090 87 d4 77 3d df 27 d1 3d 37 2e 40 bd d4 4d dd bd
       0.060505416 0.10212683 -0.046919074 -0.1080586
0000a0 df 9c 6c 3d 0f 23 27 3e ec 87 2e be c0 24 5a bd
       0.05776679 0.16321968 -0.17044038 -0.053257704
0000b0 0f 7f 48 3e 36 38 2d bc 5f 4b 91 3e ee 34 a2 3e
       0.19579719 -0.010572484 0.28377816 0.31681007
0000c0 4c 32 22 3e 03 22 08 3e 15 8c 06 be 13 af d0 bd
       0.15839499 0.13294224 -0.13139375 -0.10189643
0000d0 37 2a 08 bf 37 bd 8c be 54 1b cd 3d c8 9e 8c 3e
       -0.53189415 -0.2748811 0.10014978 0.2746489
0000e0 a7 63 4b 3d 6e 1c e1 3d d4 25 39 3e a1 d5 cb be
       0.049655583 0.10991751 0.18080837 -0.39811423
0000f0 31 73 bf 3d ca 4b 35 bd 7f 0c ac be fd 7c 3f 3e
       0.09348143 -0.04426173 -0.33603284 0.18700023
000100 4e 1e 62 3d 9f 35 90 be 78 ca 35 3e ed 51 a5 be
       0.055204682 -0.2816591 0.17753017 -0.32289067
000110 4f 27 42 3d 73 45 cf 3d f3 ae bc bd 73 12 d8 3d
       0.04740077 0.10120668 -0.092130564 0.10550394
000120 66 9b 84 3d c1 d1 52 be ca e5 4e be 3f cf 0d be
       0.064749524 -0.20587827 -0.20204845 -0.1384859
000130 a3 d5 27 be 85 d9 ed bd 32 1d 46 3e a5 56 7f 3e
       -0.1639009 -0.11613754 0.19347075 0.24935396
000140 d1 32 79 3e f2 55 c7 3d 7a 75 0a bd a0 e6 b1 3d
       0.24335791 0.0973319 -0.03380344 0.08686566
000150 30 7f 39 3d 43 5b c0 3d f0 0b a5 be 9d 44 56 3c
       0.04528731 0.09392407 -0.3223567 0.013077882
000160 8e 5f 86 3e 1e f7 5b be f5 96 90 bd b2 3b 5d be
       0.26244777 -0.21480986 -0.07060043 -0.21604803
000170 e2 40 0b be 67 03 8e be c5 21 11 be 3f e3 b4 3d
       -0.1359897 -0.2773697 -0.14173038 0.08832406
000180 d7 06 27 bc 1f aa d3 3c 01 11 3e 3e 24 a0 9b 3b
       -0.010194502 0.025837956 0.18561174 0.004749315
000190 1d c7 28 bd 70 16 cd ba a4 96 33 be 19 86 2c 3e
       -0.041205514 -0.0015646946 -0.17537934 0.16848029
0001a0 41 00 22 bc a3 f7 30 ba 96 cf 3d bc c1 64 72 bc
       -0.009887756 -0.0006750768 -0.011585137 -0.014794529
0001b0 b7 31 19 be 1e 24 b8 3d 27 c6 8a 3d 2e 2e a2 3d
       -0.14960371 0.08991264 0.06776076 0.07918964
0001c0 72 4e 3b 3e 15 6d 8b bd ee 72 c4 39 9f a2 11 bd
       0.18291643 -0.06807915 0.00037469662 -0.03555548
0001d0 63 8c 2f bd 14 55 ab 3e e1 bb 11 3e 82 66 13 be
       -0.042858493 0.33463347 0.14231826 -0.14394572
0001e0 2a 6b fe 3c e4 c6 7b be b6 20 23 bf e5 c3 c3 be
       0.03105696 -0.2458759 -0.6372179 -0.38235393
0001f0 2e b8 16 bf 85 28 2d bd 03 c4 15 3d 14 af 67 bd
       -0.58874786 -0.04227497 0.036563884 -0.056563452
000200 34 c6 9d be a1 56 10 3d 90 96 fd bd 95 cd 85 3c
       -0.3081528 0.035238866 -0.12382233 0.01633338
000210 c7 02 30 3d 29 49 40 3e ca 30 51 3e 9a df 71 bc
       0.0429714 0.18777908 0.20428768 -0.014762783
000220 1a 75 5c 3e c9 56 2b be 92 75 73 bc 0b 51 7a 3e
       0.21529046 -0.16732325 -0.014859574 0.24444978
000230 d5 7a 9b 3e 98 df af be 22 f1 5d be d6 57 37 3d
       0.3036715 -0.34350276 -0.21674016 0.0447615
000240 b8 46 31 3e 13 89 24 3e 0c c0 90 3a bb 54 2e bd
       0.17312133 0.16067915 0.0011043563 -0.042561274
000250 65 e7 80 bd 38 68 bd be 38 34 35 bc 91 f9 b1 be
       -0.06294135 -0.36993575 -0.011059813 -0.34760717
000260 cf d9 ae 3e ea c5 f1 be ac 06 af be 5f 43 bd be
       0.3415055 -0.4722131 -0.34184778 -0.36965463
000270 3e 32 0e 3e bb 0a d8 3c 12 cc db be 78 a6 83 3e
       0.13886353 0.026372304 -0.4292913 0.25712943
000280 2d ec 5d 3c b0 45 30 3b ad 23 b6 be 95 66 80 be
       0.013545078 0.0026897006 -0.35574093 -0.25078264
000290 2b f4 44 be c6 94 b6 3c 06 c9 2c be ad fe 59 be
       -0.19233768 0.022287738 -0.1687356 -0.21288557
0002a0 96 12 a1 3e 97 24 7f 3e 5f 6b bd bc 56 e2 cc bc
       0.31459492 0.24916302 -0.023122488 -0.02501027
0002b0 96 63 9a be 3f fa 14 be 10 70 b7 3d 32 9a 7a 3e
       -0.30154103 -0.14548586 0.08956921 0.24472883
0002c0 c4 5c 3b 3e f2 2e 88 3b 5f 84 45 bc 1b df c3 bd
       0.18297106 0.004155987 -0.0120554855 -0.09564038
0002d0 2d fb 4e 3d e9 f6 32 3e 51 29 61 3e 06 31 82 be
       0.05053251 0.17477001 0.21988417 -0.25428027
0002e0 05 28 54 3e 2f 21 41 3e aa 8e 00 bf 9c be 0a be
       0.20718391 0.18860315 -0.5021769 -0.13549274
0002f0 21 52 09 3d 1b 31 60 3e f2 ed 00 3e c8 59 99 be
       0.03352559 0.21893732 0.12590769 -0.2995131
000300 bf 49 84 3e a8 cf 11 3c 48 85 c5 be c7 a6 16 3e
       0.25837514 0.008899607 -0.38578248 0.14712058
000310 f4 27 2f be 3c 33 e8 be 5a d3 54 3c 52 45 ea 3d
       -0.17105085 -0.4535159 0.012989843 0.11439003
000320 de 68 18 3e df a7 b1 bd 36 b8 92 bd 87 4e 93 be
       0.14883754 -0.08674597 -0.07164042 -0.2877085
000330 18 8f 1f 3e 17 ae 65 bd a5 38 a4 3b d4 f9 26 3e
       0.1558193 -0.05607423 0.0050116354 0.1630624
000340 0f a9 92 3c f6 10 49 be ba 1d 94 3d bb 99 91 be
       0.017902879 -0.19635376 0.072322324 -0.284376
000350 71 a9 30 3e 5f 53 83 be 24 9c 90 be c7 78 a7 3c
       0.17252137 -0.25649545 -0.28244126 0.020443333
000360 c5 55 b8 be e5 ca 16 3d 53 43 cd bd 00 85 4c 3e
       -0.36002937 0.03681459 -0.10022607 0.1997261
000370 75 99 09 3e 10 75 20 bd 77 45 32 be da 03 66 be
       0.13437445 -0.03917414 -0.17409311 -0.22462407
000380 4f 98 c1 3d b3 19 3d 3d 9a cb 6a 3e 64 9a 83 3e
       0.09452879 0.046167087 0.2292923 0.25703728
000390 ad f6 05 3d 31 2e 07 3b f2 3b 83 3d b3 20 cd be
       0.03270595 0.0020626897 0.06407918 -0.4006401
0003a0 90 b0 dd be 6f 26 bd be ee b6 9f 3e f3 ab 91 3e
       -0.4329877 -0.36943385 0.31194252 0.284515
0003b0 a1 11 84 3d 66 56 ed bc 52 dd 57 3d 7b e8 4c 3e
       0.06448675 -0.028971862 0.052701302 0.2001056
0003c0 49 5b c1 be 78 8f cd be 92 4c 54 be 0c 48 01 3d
       -0.37764958 -0.4014852 -0.20732334 0.03156285
0003d0 b9 c2 38 3d d7 38 0c 3d 78 d3 46 be 8c 4f 7d 3d
       0.045107577 0.034233894 -0.19416606 0.06184344
0003e0 41 c9 11 3e 65 4b a3 bd 55 b8 14 3e b4 46 1a 3b
       0.14236929 -0.07973365 0.14523442 0.0023540678
0003f0 ad 20 05 3e cf f5 27 be a7 eb c0 3d 94 7e f4 bd
       0.13000746 -0.16402362 0.09419947 -0.11938205

sequential/conv2d_1/Conv2D f4 [64, 3, 3, 32]
000000 7c 85 45 bd ee 28 47 3d 8b 32 75 bd a2 6d c0 3d
       -0.048223004 0.048623018 -0.059862655 0.09395911
000010 fc 7c bb bc d3 91 d5 bd de 3b ea bb d6 0e ab bd
       -0.022886746 -0.104282044 -0.00714825 -0.08352439
000020 b5 70 d8 3d 49 e9 63 3d 71 37 a2 3c 39 8d 8c 3c
       0.10568372 0.0556424 0.019801827 0.017157184
000030 b2 08 9b bc 84 4a f7 bd 48 ef 46 bd 44 8d 59 bd
       -0.018925045 -0.120747596 -0.04856804 -0.053113237
000040 28 22 c5 3d 17 2c ea bd 13 c4 b4 3a d1 32 6e 3d
       0.096256554 -0.11434191 0.0013791345 0.05815393
000050 41 17 17 bd 98 77 89 3c ce 6e 28 3b ea a5 b8 bd
       -0.03688741 0.01678066 0.002570081 -0.090160206
000060 aa 50 4d 3d a6 4f 3e 3c 3f 29 05 bd 89 c4 6f 3d
       0.050125755 0.011615669 -0.03251004 0.05853704
000070 43 27 84 3d cc 67 fa 3b 40 89 1e 3d 8c ca 9a 3d
       0.06452801 0.007641768 0.03870511 0.07558164
000080 c6 bf b7 bd f1 2b 73 be 07 bd 3d bd 80 a3 33 3d
       -0.08972125 -0.23747231 -0.04632285 0.043857098
000090 e9 6c ef bd ae ca 8b bc 7f 0e 89 3d a1 eb 80 3b
       -0.11690695 -0.017064419 0.06692218 0.003934339
0000a0 d2 c5 45 bd 64 6e 92 3c ff f9 1d be 5c 5c fa bd
       -0.04828436 0.017874904 -0.15427397 -0.122246474
0000b0 73 6d 13 be f2 fa 8e bd cb 0f 7c bd fa b4 0b be
       -0.1439722 -0.06981458 -0.0615385 -0.13643256
0000c0 fe 8c de 3d c1 c0 b3 bd 4c 97 e9 3c 4f 7e 01 3d
       0.10866736 -0.08776999 0.028514527 0.031614598
0000d0 07 b6 0a bd bf 92 c8 bc ff a1 b2 3d 7c 7c 07 bd
       -0.033865 -0.024484036 0.087223046 -0.033077702
0000e0 27 f2 b8 bd 49 e9 8d 3d 95 bc 1f 3c 75 75 98 bd
       -0.09030562 0.06929261 0.009749551 -0.07444278
0000f0 19 3e 29 be ef 16 18 bd 4a e9 62 bb 6e 83 87 be
       -0.16527595 -0.037131246 -0.0034623914 -0.2646746
000100 88 1f 0d bd 04 53 57 3e 73 86 5a bd e5 27 c4 3d
       -0.0344539 0.21027762 -0.053350877 0.09577922
000110 de 89 68 3d b3 f3 29 be b9 dc 22 3c b4 0f 09 3e
       0.056772105 -0.1659687 0.00994032 0.13384897
000120 71 77 da 3c 5e 85 23 be 52 10 7c 3e 60 08 9c bd
       0.026668282 -0.15968844 0.246156 -0.07618785
000130 7b e2 eb 3c 5b 50 6a 3d 7b fc 48 3e ed 28 8d 3d
       0.028794518 0.05720554 0.19627564 0.068925716
000140 db ee 65 3e ff b9 b0 bd 32 a1 8e bd 39 e3 a9 3d
       0.22454397 -0.08629226 -0.06964339 0.082952924
000150 70 92 6f 3d ba 2b da 3d 57 98 23 be 08 1e b4 3d
       0.058489263 0.106528714 -0.15976082 0.087947905
000160 a1 f6 bc 3d 88 0a e8 bd d7 cc 8f 3d 0c 10 a2 bd
       0.09226728 -0.11330134 0.07021492 -0.07913217
000170 55 77 34 3e 3f 2e a3 3c 77 05 21 bc b1 fd 4f 3e
       0.17623647 0.019919513 -0.009827963 0.2031162
000180 ad 0f 0c be 6e 55 56 bd ad 27 b8 3c 96 2c 94 bd
       -0.13677855 -0.052327566 0.022479856 -0.072350666
000190 4a a4 39 3d ec c4 59 be 43 e7 8d 3c 0d f8 83 3d
       0.045322694 -0.21266526 0.017322188 0.06443796
0001a0 ad 59 0d be fb 0a a5 3d 79 a1 bb bd d6 ec c7 3d
       -0.1380374 0.08058735 -0.09161658 0.0976197
0001b0 23 c0 81 3d 9c 5e 2e be 3b 87 c9 bd b4 ea 5f bc
       0.06335475 -0.17028278 -0.09840246 -0.013666797
0001c0 da 04 27 be b9 a6 01 bd 9b 3b d8 3c 66 07 db bd
       -0.16310444 -0.03165314 0.02639561 -0.106947705
0001d0 62 c8 23 3d b1 3a e5 3a ab d1 ae 3c 8f 82 58 be
       0.03998602 0.0017488805 0.021340212 -0.21143554
0001e0 ae 38 16 3d 54 f6 4b be 24 7b 2a be 09 23 bf 3d
       0.036675148 -0.19918185 -0.16648537 0.09332854
0001f0 96 7e 39 be 87 38 15 be 29 1b 4c 3d f6 df 97 3d
       -0.18114695 -0.14572345 0.04983059 0.07415764
000200 3c 1e 82 bd d6 09 9f be 35 9a 6b 3d e2 f5 31 be
       -0.06353423 -0.31062192 0.05752011 -0.17378953
000210 68 20 23 bd f7 1c 9f bd b6 64 33 3d a0 1c 03 bc
       -0.039825827 -0.077691965 0.043797217 -0.00800243
000220 76 73 61 be f3 d9 ac bc f5 88 a6 be 7f cf 99 bd
       -0.22016701 -0.02110002 -0.32526365 -0.0751028
000230 fb b6 2a bc b3 9b ea bd 6c 13 87 bd b8 af 43 be
       -0.0104196025 -0.114554785 -0.06595501 -0.1911
000240 66 02 d7 3b 8e 00 ed bd 71 d4 3a be bb fa 02 be
       0.006561565 -0.115723714 -0.18245102 -0.12790959
000250 c4 1c 68 be 07 84 5b 3d f0 4b 96 bd 68 1b a2 3d
       -0.22667223 0.053592708 -0.07338703 0.079153836
000260 57 6d 54 be 12 a1 c1 bd ae 56 3e 3c 0c 0f 2d bd
       -0.20744835 -0.0945455 0.011617346 -0.042250678
000270 a5 e8 44 be 96 a3 3d be d4 88 11 3e 0b 58 af be
       -0.19229372 -0.18519434 0.14212352 -0.3424686
000280 6b 24 2c bd 11 3c 6d 3e 98 f7 34 3c ff 21 96 bd
       -0.04202692 0.23167445 0.011045359 -0.07330703
000290 d1 f9 fe 3d 15 b6 07 bf 29 d3 84 be dc 68 87 3d
       0.124499924 -0.5301221 -0.25942352 0.06611797
0002a0 28 e0 c7 bd ed 13 49 3d aa 8a 00 3d b0 a6 0f bd
       -0.09759551 0.04909127 0.03138224 -0.035071075
0002b0 8f e4 f2 bd 15 6a 7a be c3 b2 9c bc 5d 14 8d 3d
       -0.1186 -0.2445453 -0.019128209 0.068886496
0002c0 58 fb 60 bd cc b7 5e be bd f9 6a be c4 4a 14 3e
       -0.0549272 -0.217498 -0.2294683 0.14481646
0002d0 d8 17 76 3e 4a e3 96 be bf 17 4a be c8 b8 bc 3d
       0.24032533 -0.29470283 -0.19735621 0.09214932
0002e0 47 7e 44 bb f1 2f 9a be 9b 43 f7 bd 47 38 39 3e
       -0.0029982494 -0.301147 -0.120734416 0.18087874
0002f0 d3 9a 3e 3e b9 08 af 3d ec 85 32 3c df 92 7f 3e
       0.18613748 0.085465856 0.010896187 0.2495837
000300 5b bf bc 3d 75 e6 47 3c 64 da 68 bc 5c 2f 2b 3d
       0.09216186 0.012200941 -0.014212225 0.041793212
000310 84 08 98 3d 70 f1 7b bd 4a 4a a7 3d 91 c6 05 3c
       0.07423499 -0.06150955 0.081684664 0.008165018
000320 f5 6c a7 3c f3 3c 66 bd 7e 5b 91 bd 56 9d fc bc
       0.020437697 -0.05621047 -0.07097529 -0.030836742
000330 54 39 b2 3d a1 04 02 be 76 a6 b8 3c 46 3e ca 3d
       0.08702341 -0.12697078 0.022540312 0.09875159
000340 27 84 80 bd 1d b8 4b bd 92 e7 61 3d 83 4f ff bc
       -0.06275206 -0.04973613 0.055152483 -0.031165844
000350 0f 92 19 3d fc 78 d2 3d 65 b7 2f bd 32 f7 86 3c
       0.037492808 0.10276982 -0.042899508 0.016475294
000360 12 bf eb 3d 55 a9 ec bd 63 51 e5 3c 80 ed 9e 3d
       0.11511053 -0.11555735 0.02799291 0.07760143
000370 31 8e ea bd 49 ff 9a 3d 00 ba b2 3d 64 94 9c 3c
       -0.11452902 0.07568223 0.08726883 0.019113727
000380 6d 97 dd bd 5e 27 91 be d4 85 fa bd 85 cc d0 bc
       -0.10819898 -0.28350347 -0.12232557 -0.025488148
000390 b3 26 95 be f8 48 3c be 30 4c 14 bc db 27 8c bc
       -0.29131088 -0.1838721 -0.009051368 -0.017108848
0003a0 9f c6 8d 3c ae d7 b1 bc 9c ec 44 be 82 f5 27 bd
       0.017306624 -0.02170929 -0.19230884 -0.04100562
0003b0 94 e6 16 bd 15 62 60 bd 49 e4 81 bd 14 63 46 be
       -0.03684099 -0.05478104 -0.0634237 -0.19373733
0003c0 cc 02 7d be f1 a9 04 bd 44 ee 2f bd d5 a0 ea 3b
       -0.24708098 -0.03238863 -0.042951837 0.007160286
0003d0 aa fc 8d be 9d c2 e4 bd 99 29 3f be f0 e9 b2 3c
       -0.2773183 -0.11169932 -0.18668212 0.021840066
0003e0 31 3c ab be 59 5b dd bd 84 ca e7 bd 02 35 7b be
       -0.3344436 -0.10808439 -0.11317924 -0.2453194
0003f0 d0 bd 3b be d2 21 54 be 78 d7 6d bb 5f fc 87 be
       -0.18334126 -0.20716026 -0.003629176 -0.2655973
